…
Traceback (most recent call last):
  File "./agent.py", line 486, in <module>
    args = parse_args(args)
  File "./agent.py", line 240, in parse_args
    parser.add_argument('--normal', default=True, action='store_flase')
  File "/home/slc/miniconda3/envs/RL2/lib/python3.8/argparse.py", line 1367, in add_argument
    raise ValueError('unknown action "%s"' % (action_class,))
ValueError: unknown action "store_flase"
pygame 2.1.0 (SDL 2.0.16, Python 3.8.0)
Hello from the pygame community. https://www.pygame.org/contribute.html
Successfully set seed to 2
Dueling_DQN_vector(
  (features): Sequential(
    (0): Linear(in_features=105, out_features=512, bias=True)
    (1): ReLU()
  )
  (advantage): Sequential(
    (0): Linear(in_features=512, out_features=512, bias=True)
    (1): ReLU()
    (2): Linear(in_features=512, out_features=5, bias=True)
  )
  (value): Sequential(
    (0): Linear(in_features=512, out_features=512, bias=True)
    (1): ReLU()
    (2): Linear(in_features=512, out_features=1, bias=True)
  )
)
Ep: 0 | Ep_r: 8.57 | t_so_far: {10} | epsilon: 0.101 max: 8.566666666666666
Ep: 1 | Ep_r: 8.44 | t_so_far: {20} | epsilon: 0.103 max: 8.566666666666666
Ep: 2 | Ep_r: 14.49 | t_so_far: {70} | epsilon: 0.11 max: 14.492
Ep: 3 | Ep_r: 16.41 | t_so_far: {96} | epsilon: 0.114 max: 16.413600000000002
Ep: 4 | Ep_r: 16.92 | t_so_far: {119} | epsilon: 0.117 max: 16.91754666666667
…
Ep: 996 | Ep_r: 35.2 | t_so_far: {36771} | epsilon: 0.996 max: 39.75566306331318
Ep: 997 | Ep_r: 36.21 | t_so_far: {36821} | epsilon: 0.997 max: 39.75566306331318
Ep: 998 | Ep_r: 30.89 | t_so_far: {36834} | epsilon: 0.997 max: 39.75566306331318
Ep: 999 | Ep_r: 32.52 | t_so_far: {36884} | epsilon: 0.997 max: 39.75566306331318
Ep: 1000 | Ep_r: 33.85 | t_so_far: {36934} | epsilon: 0.997 max: 39.75566306331318
pygame 2.1.0 (SDL 2.0.16, Python 3.8.0)
Hello from the pygame community. https://www.pygame.org/contribute.html
Successfully set seed to 2
Dueling_DQN_vector(
  (features): Sequential(
    (0): Linear(in_features=105, out_features=512, bias=True)
    (1): ReLU()
  )
  (advantage): Sequential(
    (0): Linear(in_features=512, out_features=512, bias=True)
    (1): ReLU()
    (2): Linear(in_features=512, out_features=5, bias=True)
  )
  (value): Sequential(
    (0): Linear(in_features=512, out_features=512, bias=True)
    (1): ReLU()
    (2): Linear(in_features=512, out_features=1, bias=True)
  )
)
====================================
Model has been loaded...
====================================
step: 2, ep_reward: 2.1333333333333333
step: 49, ep_reward: 42.10000000000001
step: 49, ep_reward: 41.633333333333354
step: 49, ep_reward: 38.66666666666666
step: 49, ep_reward: 41.600000000000016
step: 49, ep_reward: 39.33333333333335
step: 49, ep_reward: 39.100000000000016
step: 49, ep_reward: 37.06666666666669
step: 49, ep_reward: 39.13333333333332
step: 49, ep_reward: 37.43333333333334
pygame 2.1.0 (SDL 2.0.16, Python 3.8.0)
Hello from the pygame community. https://www.pygame.org/contribute.html
Successfully set seed to 2
Dueling_DQN_vector(
  (features): Sequential(
    (0): Linear(in_features=105, out_features=512, bias=True)
    (1): ReLU()
  )
  (advantage): Sequential(
    (0): Linear(in_features=512, out_features=512, bias=True)
    (1): ReLU()
    (2): Linear(in_features=512, out_features=5, bias=True)
  )
  (value): Sequential(
    (0): Linear(in_features=512, out_features=512, bias=True)
    (1): ReLU()
    (2): Linear(in_features=512, out_features=1, bias=True)
  )
)
====================================
Model has been loaded...
====================================
step: 49, ep_reward: 38.93333333333336
step: 49, ep_reward: 38.500000000000014
step: 49, ep_reward: 39.80000000000003
step: 49, ep_reward: 39.666666666666686
step: 49, ep_reward: 38.03333333333335
step: 49, ep_reward: 38.16666666666668
step: 49, ep_reward: 39.13333333333335
step: 49, ep_reward: 39.799999999999976
step: 40, ep_reward: 30.600000000000016
step: 49, ep_reward: 39.29999999999999
pygame 2.1.0 (SDL 2.0.16, Python 3.8.0)
Hello from the pygame community. https://www.pygame.org/contribute.html
Successfully set seed to 2
Dueling_DQN_vector(
  (features): Sequential(
    (0): Linear(in_features=105, out_features=512, bias=True)
    (1): ReLU()
  )
  (advantage): Sequential(
    (0): Linear(in_features=512, out_features=512, bias=True)
    (1): ReLU()
    (2): Linear(in_features=512, out_features=5, bias=True)
  )
  (value): Sequential(
    (0): Linear(in_features=512, out_features=512, bias=True)
    (1): ReLU()
    (2): Linear(in_features=512, out_features=1, bias=True)
  )
)
====================================
Model has been loaded...
====================================
step: 49, ep_reward: 39.10000000000002
step: 49, ep_reward: 39.03333333333336
step: 49, ep_reward: 38.73333333333335
step: 49, ep_reward: 39.73333333333335
step: 49, ep_reward: 39.26666666666668
step: 49, ep_reward: 39.33333333333335
step: 49, ep_reward: 40.03333333333335
…
